[25.08.2018 14:22:31] Training starts...
[25.08.2018 14:22:31] Training params: alpha 1.00
[25.08.2018 14:24:04] Model summary:
[25.08.2018 14:24:04] _________________________________________________________________
[25.08.2018 14:24:04] Layer (type)                 Output Shape              Param #   
[25.08.2018 14:24:04] =================================================================
[25.08.2018 14:24:04] input_1 (InputLayer)         (None, 224, 224, 3)       0         
[25.08.2018 14:24:04] _________________________________________________________________
[25.08.2018 14:24:04] conv1 (Conv2D)               (None, 112, 112, 32)      864       
[25.08.2018 14:24:04] _________________________________________________________________
[25.08.2018 14:24:04] conv1_bn (BatchNormalization (None, 112, 112, 32)      128       
[25.08.2018 14:24:04] _________________________________________________________________
[25.08.2018 14:24:04] conv1_relu (Activation)      (None, 112, 112, 32)      0         
[25.08.2018 14:24:04] _________________________________________________________________
[25.08.2018 14:24:04] conv_dw_1 (DepthwiseConv2D)  (None, 112, 112, 32)      288       
[25.08.2018 14:24:04] _________________________________________________________________
[25.08.2018 14:24:04] conv_dw_1_bn (BatchNormaliza (None, 112, 112, 32)      128       
[25.08.2018 14:24:04] _________________________________________________________________
[25.08.2018 14:24:04] conv_dw_1_relu (Activation)  (None, 112, 112, 32)      0         
[25.08.2018 14:24:04] _________________________________________________________________
[25.08.2018 14:24:04] conv_pw_1 (Conv2D)           (None, 112, 112, 64)      2048      
[25.08.2018 14:24:04] _________________________________________________________________
[25.08.2018 14:24:04] conv_pw_1_bn (BatchNormaliza (None, 112, 112, 64)      256       
[25.08.2018 14:24:04] _________________________________________________________________
[25.08.2018 14:24:04] conv_pw_1_relu (Activation)  (None, 112, 112, 64)      0         
[25.08.2018 14:24:04] _________________________________________________________________
[25.08.2018 14:24:04] conv_dw_2 (DepthwiseConv2D)  (None, 56, 56, 64)        576       
[25.08.2018 14:24:04] _________________________________________________________________
[25.08.2018 14:24:04] conv_dw_2_bn (BatchNormaliza (None, 56, 56, 64)        256       
[25.08.2018 14:24:04] _________________________________________________________________
[25.08.2018 14:24:04] conv_dw_2_relu (Activation)  (None, 56, 56, 64)        0         
[25.08.2018 14:24:04] _________________________________________________________________
[25.08.2018 14:24:04] conv_pw_2 (Conv2D)           (None, 56, 56, 128)       8192      
[25.08.2018 14:24:04] _________________________________________________________________
[25.08.2018 14:24:04] conv_pw_2_bn (BatchNormaliza (None, 56, 56, 128)       512       
[25.08.2018 14:24:04] _________________________________________________________________
[25.08.2018 14:24:04] conv_pw_2_relu (Activation)  (None, 56, 56, 128)       0         
[25.08.2018 14:24:04] _________________________________________________________________
[25.08.2018 14:24:04] conv_dw_3 (DepthwiseConv2D)  (None, 56, 56, 128)       1152      
[25.08.2018 14:24:04] _________________________________________________________________
[25.08.2018 14:24:04] conv_dw_3_bn (BatchNormaliza (None, 56, 56, 128)       512       
[25.08.2018 14:24:04] _________________________________________________________________
[25.08.2018 14:24:04] conv_dw_3_relu (Activation)  (None, 56, 56, 128)       0         
[25.08.2018 14:24:04] _________________________________________________________________
[25.08.2018 14:24:04] conv_pw_3 (Conv2D)           (None, 56, 56, 128)       16384     
[25.08.2018 14:24:04] _________________________________________________________________
[25.08.2018 14:24:04] conv_pw_3_bn (BatchNormaliza (None, 56, 56, 128)       512       
[25.08.2018 14:24:04] _________________________________________________________________
[25.08.2018 14:24:04] conv_pw_3_relu (Activation)  (None, 56, 56, 128)       0         
[25.08.2018 14:24:04] _________________________________________________________________
[25.08.2018 14:24:04] conv_dw_4 (DepthwiseConv2D)  (None, 28, 28, 128)       1152      
[25.08.2018 14:24:04] _________________________________________________________________
[25.08.2018 14:24:04] conv_dw_4_bn (BatchNormaliza (None, 28, 28, 128)       512       
[25.08.2018 14:24:04] _________________________________________________________________
[25.08.2018 14:24:04] conv_dw_4_relu (Activation)  (None, 28, 28, 128)       0         
[25.08.2018 14:24:04] _________________________________________________________________
[25.08.2018 14:24:04] conv_pw_4 (Conv2D)           (None, 28, 28, 256)       32768     
[25.08.2018 14:24:04] _________________________________________________________________
[25.08.2018 14:24:04] conv_pw_4_bn (BatchNormaliza (None, 28, 28, 256)       1024      
[25.08.2018 14:24:04] _________________________________________________________________
[25.08.2018 14:24:04] conv_pw_4_relu (Activation)  (None, 28, 28, 256)       0         
[25.08.2018 14:24:04] _________________________________________________________________
[25.08.2018 14:24:04] conv_dw_5 (DepthwiseConv2D)  (None, 28, 28, 256)       2304      
[25.08.2018 14:24:04] _________________________________________________________________
[25.08.2018 14:24:04] conv_dw_5_bn (BatchNormaliza (None, 28, 28, 256)       1024      
[25.08.2018 14:24:04] _________________________________________________________________
[25.08.2018 14:24:04] conv_dw_5_relu (Activation)  (None, 28, 28, 256)       0         
[25.08.2018 14:24:04] _________________________________________________________________
[25.08.2018 14:24:04] conv_pw_5 (Conv2D)           (None, 28, 28, 256)       65536     
[25.08.2018 14:24:04] _________________________________________________________________
[25.08.2018 14:24:04] conv_pw_5_bn (BatchNormaliza (None, 28, 28, 256)       1024      
[25.08.2018 14:24:04] _________________________________________________________________
[25.08.2018 14:24:04] conv_pw_5_relu (Activation)  (None, 28, 28, 256)       0         
[25.08.2018 14:24:04] _________________________________________________________________
[25.08.2018 14:24:04] conv_dw_6 (DepthwiseConv2D)  (None, 14, 14, 256)       2304      
[25.08.2018 14:24:04] _________________________________________________________________
[25.08.2018 14:24:04] conv_dw_6_bn (BatchNormaliza (None, 14, 14, 256)       1024      
[25.08.2018 14:24:04] _________________________________________________________________
[25.08.2018 14:24:04] conv_dw_6_relu (Activation)  (None, 14, 14, 256)       0         
[25.08.2018 14:24:04] _________________________________________________________________
[25.08.2018 14:24:04] conv_pw_6 (Conv2D)           (None, 14, 14, 512)       131072    
[25.08.2018 14:24:04] _________________________________________________________________
[25.08.2018 14:24:04] conv_pw_6_bn (BatchNormaliza (None, 14, 14, 512)       2048      
[25.08.2018 14:24:04] _________________________________________________________________
[25.08.2018 14:24:04] conv_pw_6_relu (Activation)  (None, 14, 14, 512)       0         
[25.08.2018 14:24:04] _________________________________________________________________
[25.08.2018 14:24:04] conv_dw_7 (DepthwiseConv2D)  (None, 14, 14, 512)       4608      
[25.08.2018 14:24:04] _________________________________________________________________
[25.08.2018 14:24:04] conv_dw_7_bn (BatchNormaliza (None, 14, 14, 512)       2048      
[25.08.2018 14:24:04] _________________________________________________________________
[25.08.2018 14:24:04] conv_dw_7_relu (Activation)  (None, 14, 14, 512)       0         
[25.08.2018 14:24:04] _________________________________________________________________
[25.08.2018 14:24:04] conv_pw_7 (Conv2D)           (None, 14, 14, 512)       262144    
[25.08.2018 14:24:04] _________________________________________________________________
[25.08.2018 14:24:04] conv_pw_7_bn (BatchNormaliza (None, 14, 14, 512)       2048      
[25.08.2018 14:24:04] _________________________________________________________________
[25.08.2018 14:24:04] conv_pw_7_relu (Activation)  (None, 14, 14, 512)       0         
[25.08.2018 14:24:04] _________________________________________________________________
[25.08.2018 14:24:04] conv_dw_8 (DepthwiseConv2D)  (None, 14, 14, 512)       4608      
[25.08.2018 14:24:04] _________________________________________________________________
[25.08.2018 14:24:04] conv_dw_8_bn (BatchNormaliza (None, 14, 14, 512)       2048      
[25.08.2018 14:24:04] _________________________________________________________________
[25.08.2018 14:24:04] conv_dw_8_relu (Activation)  (None, 14, 14, 512)       0         
[25.08.2018 14:24:04] _________________________________________________________________
[25.08.2018 14:24:04] conv_pw_8 (Conv2D)           (None, 14, 14, 512)       262144    
[25.08.2018 14:24:04] _________________________________________________________________
[25.08.2018 14:24:04] conv_pw_8_bn (BatchNormaliza (None, 14, 14, 512)       2048      
[25.08.2018 14:24:04] _________________________________________________________________
[25.08.2018 14:24:04] conv_pw_8_relu (Activation)  (None, 14, 14, 512)       0         
[25.08.2018 14:24:04] _________________________________________________________________
[25.08.2018 14:24:04] conv_dw_9 (DepthwiseConv2D)  (None, 14, 14, 512)       4608      
[25.08.2018 14:24:04] _________________________________________________________________
[25.08.2018 14:24:04] conv_dw_9_bn (BatchNormaliza (None, 14, 14, 512)       2048      
[25.08.2018 14:24:04] _________________________________________________________________
[25.08.2018 14:24:04] conv_dw_9_relu (Activation)  (None, 14, 14, 512)       0         
[25.08.2018 14:24:04] _________________________________________________________________
[25.08.2018 14:24:04] conv_pw_9 (Conv2D)           (None, 14, 14, 512)       262144    
[25.08.2018 14:24:04] _________________________________________________________________
[25.08.2018 14:24:04] conv_pw_9_bn (BatchNormaliza (None, 14, 14, 512)       2048      
[25.08.2018 14:24:04] _________________________________________________________________
[25.08.2018 14:24:04] conv_pw_9_relu (Activation)  (None, 14, 14, 512)       0         
[25.08.2018 14:24:04] _________________________________________________________________
[25.08.2018 14:24:04] conv_dw_10 (DepthwiseConv2D) (None, 14, 14, 512)       4608      
[25.08.2018 14:24:04] _________________________________________________________________
[25.08.2018 14:24:04] conv_dw_10_bn (BatchNormaliz (None, 14, 14, 512)       2048      
[25.08.2018 14:24:04] _________________________________________________________________
[25.08.2018 14:24:04] conv_dw_10_relu (Activation) (None, 14, 14, 512)       0         
[25.08.2018 14:24:04] _________________________________________________________________
[25.08.2018 14:24:04] conv_pw_10 (Conv2D)          (None, 14, 14, 512)       262144    
[25.08.2018 14:24:04] _________________________________________________________________
[25.08.2018 14:24:04] conv_pw_10_bn (BatchNormaliz (None, 14, 14, 512)       2048      
[25.08.2018 14:24:04] _________________________________________________________________
[25.08.2018 14:24:04] conv_pw_10_relu (Activation) (None, 14, 14, 512)       0         
[25.08.2018 14:24:04] _________________________________________________________________
[25.08.2018 14:24:04] conv_dw_11 (DepthwiseConv2D) (None, 14, 14, 512)       4608      
[25.08.2018 14:24:04] _________________________________________________________________
[25.08.2018 14:24:04] conv_dw_11_bn (BatchNormaliz (None, 14, 14, 512)       2048      
[25.08.2018 14:24:04] _________________________________________________________________
[25.08.2018 14:24:04] conv_dw_11_relu (Activation) (None, 14, 14, 512)       0         
[25.08.2018 14:24:04] _________________________________________________________________
[25.08.2018 14:24:04] conv_pw_11 (Conv2D)          (None, 14, 14, 512)       262144    
[25.08.2018 14:24:04] _________________________________________________________________
[25.08.2018 14:24:04] conv_pw_11_bn (BatchNormaliz (None, 14, 14, 512)       2048      
[25.08.2018 14:24:04] _________________________________________________________________
[25.08.2018 14:24:04] conv_pw_11_relu (Activation) (None, 14, 14, 512)       0         
[25.08.2018 14:24:04] _________________________________________________________________
[25.08.2018 14:24:04] conv_dw_12 (DepthwiseConv2D) (None, 7, 7, 512)         4608      
[25.08.2018 14:24:04] _________________________________________________________________
[25.08.2018 14:24:04] conv_dw_12_bn (BatchNormaliz (None, 7, 7, 512)         2048      
[25.08.2018 14:24:04] _________________________________________________________________
[25.08.2018 14:24:04] conv_dw_12_relu (Activation) (None, 7, 7, 512)         0         
[25.08.2018 14:24:04] _________________________________________________________________
[25.08.2018 14:24:04] conv_pw_12 (Conv2D)          (None, 7, 7, 1024)        524288    
[25.08.2018 14:24:04] _________________________________________________________________
[25.08.2018 14:24:04] conv_pw_12_bn (BatchNormaliz (None, 7, 7, 1024)        4096      
[25.08.2018 14:24:04] _________________________________________________________________
[25.08.2018 14:24:04] conv_pw_12_relu (Activation) (None, 7, 7, 1024)        0         
[25.08.2018 14:24:04] _________________________________________________________________
[25.08.2018 14:24:04] conv_dw_13 (DepthwiseConv2D) (None, 7, 7, 1024)        9216      
[25.08.2018 14:24:04] _________________________________________________________________
[25.08.2018 14:24:04] conv_dw_13_bn (BatchNormaliz (None, 7, 7, 1024)        4096      
[25.08.2018 14:24:04] _________________________________________________________________
[25.08.2018 14:24:04] conv_dw_13_relu (Activation) (None, 7, 7, 1024)        0         
[25.08.2018 14:24:04] _________________________________________________________________
[25.08.2018 14:24:04] conv_pw_13 (Conv2D)          (None, 7, 7, 1024)        1048576   
[25.08.2018 14:24:04] _________________________________________________________________
[25.08.2018 14:24:04] conv_pw_13_bn (BatchNormaliz (None, 7, 7, 1024)        4096      
[25.08.2018 14:24:04] _________________________________________________________________
[25.08.2018 14:24:04] conv_pw_13_relu (Activation) (None, 7, 7, 1024)        0         
[25.08.2018 14:24:04] _________________________________________________________________
[25.08.2018 14:24:04] global_average_pooling2d_1 ( (None, 1024)              0         
[25.08.2018 14:24:04] _________________________________________________________________
[25.08.2018 14:24:04] dense_1 (Dense)              (None, 101)               103525    
[25.08.2018 14:24:04] _________________________________________________________________
[25.08.2018 14:24:04] activation_1 (Activation)    (None, 101)               0         
[25.08.2018 14:24:04] =================================================================
[25.08.2018 14:24:04] Total params: 3,332,389
[25.08.2018 14:24:04] Trainable params: 103,525
[25.08.2018 14:24:04] Non-trainable params: 3,228,864
[25.08.2018 14:24:04] _________________________________________________________________
[25.08.2018 14:24:04] 
[25.08.2018 14:24:22] Pretraining the new layer for 5 epoch...
…
